lenet.pth (torch_old, 242004 bytes, 10 tensors)

features.0.weight f4 [6, 1, 3, 3]
00000000: 8587 1a3f 738d b5be c1a8 0abf 2a9e 823d
00000010: cfe7 1d3e 208a 3ebd 26db 373c a960 293e
00000020: b32d bfbd fe5e c73e 5c63 753e 8243 ad3e
00000030: fb31 463d 62b1 f5bd ef9f 253e c338 9ebe
00000040: 75a8 bc3d ab21 03bf dd46 c3be 181a 213f
00000050: 878c edbd 0ea1 56bd 0394 8e3c d418 813e
00000060: 9f67 acbe bc58 593e 68be 5b3e 81a5 033e
00000070: 821e c23e 1778 fcbe 4893 1a3f 9a84 c3bd
00000080: 8186 febe 3ecb 393e cb1d a43e 5e15 00bf
00000090: c0d3 cebd 4cab 93be c050 4e3d 109f 65be
000000a0: 00ac ea3d fef5 0bbe e841 45be 1c0e f8bd
000000b0: cc96 f23d e2b5 00be 6056 d2be 3a56 6c3e
000000c0: d051 18c0 9278 c7bf 1e12 0bbe 3ecf aebf
000000d0: 0078 45bf ca9d 483e
0.60363036 -0.3545948 -0.5416375 0.06377824 0.15420459 -0.046518445 0.011221683 0.16540779
-0.09334888 0.3893966 0.23963684 0.33840567 0.04838751 -0.11996724 0.16174291 -0.3090268
0.09211818 -0.5122325 -0.38140002 0.6293044 -0.11599069 -0.052399687 0.017404562 0.25214255
-0.33672807 0.21225256 0.21459353 0.12856103 0.379139 -0.4931037 0.60380983 -0.09546776
-0.49711993 0.18143937 0.3205398 -0.50032604 -0.10098982 -0.28841627 0.050369978 -0.22423959
0.11458588 -0.13668057 -0.19263422 -0.12112066 0.118451685 -0.12569383 -0.41081524 0.23079768
-2.3799934 -1.558367 -0.1358113 -1.3656995 -0.7713623 0.19591442

features.0.bias f4 [6]
00000000: 805d 0dbb 125f 91bc d7b8 edbd 80ae 35bc
00000010: 52cc 83be 16d0 c33e
-0.0021570623 -0.017745528 -0.11607521 -0.011088967 -0.25741822 0.38244694

features.3.weight f4 [16, 6, 3, 3]
00000000: 2b45 243e 3e68 833e 73ea 113e c2f6 25be
00000010: e110 81be 0229 0fbe 6c44 5f3e fb90 263e
00000020: 13ae 90bd 063a ad3e 0a89 ad3e 81e7 eabe
00000030: 8863 afbe b11f abbd 0931 8bbe 9636 86be
00000040: 85fc 783e 3789 53be d61d dabd 093e 583e
00000050: 75bd 30bf 97da 17bf 1b20 90bd 4695 eebe
00000060: 3f23 7bbe 67b3 663e 755b b7be 8a17 803e
00000070: 87bb b13e feaf ca3d c3b9 c7be 9944 723c
00000080: 6123 5abe 255a 5c3e 1883 013e e666 403e
00000090: deba 08be a895 c43c c4bf f1bd 7a3e a8bd
000000a0: 0b56 06be b7c4 eebd 7c73 723d 0087 4c3b
000000b0: 0f72 07be 4a9e c93e 2d9a f4be 0e8b 7ebe
000000c0: 5995 b33e 56ea 5cbe bd57 25bf 928a e53e
000000d0: aaf2 f0bd ef68 b2be 876f 0abf b1cd 45be
000000e0: 3e97 083e 7063 60bf bf26 153c e370 b4bd
000000f0: c703 70be 2414 03bf c18a 2e3e 6c1e cc3c
00000100: 1c46 953d e534 15be 96b0 613d 0fb1 233e
00000110: 4e58 4cbe fd54 9fbc 95a7 a33e f5a7 0ebe
00000120: 48a7 493e b005 813e c469 babe 947d 043e
00000130: ccd7 963e d374 cdbe 4396 063e 4754 d93d
00000140: 3cfc e5bd d77e 03bf 185e 953e ebc8 873e
00000150: f996 92bf 70f7 323e c42e 953d b549 7abf
00000160: 2064 51be 434a 2abe 602e 07bc 709c f33d
00000170: 6a95 a73d a6b4 1bbd 24bc 983d 1245 da3d
00000180: 00f9 a1ba f66b 063e b2b0 073e 19c4 babe
00000190: b7bc 0bbe 8544 d6be 3081 48be 08e2 06bf
000001a0: 0e39 dabe 3650 6cbc c87c b63c 6773 69bd
000001b0: 83fa debd 6eb3 8e3d 3465 87bd ea5d 2d3e
000001c0: c167 1b3d a4b4 8c3d bf29 1a3e 5155 59be
000001d0: 9c98 c5bd c210 243e 8a06 a03c 2c3c 553c
000001e0: af74 9cbd 53a6 b6bd 79b6 6d3d 219d 55bd
000001f0: d32d 58bd 9521 8e3e d31a 1abd ecfc 913c
00000200: b63c a33d fa43 86bd 2aad 1d3e 056f 2f3e
00000210: c932 c1be 9b43 1abd d562 6a3d 53ff 983d
00000220: 1c8d 4b3d 6a51 11bc e075 c53d 1075 35bc
00000230: 01f8 853d 4a2c a03d e821 88be 72b7 563e
00000240: fa6f 98bd 728f ce3d 18ee 5dbc a048 fcbd
00000250: e070 f4bc 6a53 c73d f4b2 2e3d 784c f23d
00000260: fabc a2bd e384 df3c a3af d93d 8eb2 06be
00000270: f724 023f 67c1 a53e ba67 2cbe 6ac4 fd3e
00000280: ab45 213f 00a0 4ebf cbb7 c8bd c85b eb3e
00000290: 19f1 4bbe 73d7 64bd 6dd9 663d 066c cd3e
000002a0: ce8c 3bbe 6042 993b 943d bb3e 7794 523d
000002b0: 2123 a0be f190 8fbf cc1c 423d 9d7e bc3e
000002c0: e678 b33e c2b1 54bd 5eed 44bc 114c 1dbd
000002d0: a53f 85be 16d2 9fbe 51ea 34bf bea0 e2bd
000002e0: 752e 113e fbfc 5bbe a5e8 173e 9db9 4ebc
000002f0: 583d 6c3d d05d 54be 012f b03d 47ea e4be
00000300: d673 edba bbf6 0cbc 5567 e23d cf99 7e3c
00000310: 9b0d e0be a212 143a 54ca f5bc f069 543c
00000320: d808 b53c da1a b4bd 70ec 9a3c 50ba 663d
00000330: 04b8 233d 881a 143d ac39 763d 9a44 013e
00000340: 56e0 323e 8d25 203f d59a 373e d8d2 34bf
00000350: a21e 43bd ef45 9ebb 2f02 dabe f540 33bf
00000360: 5bac 573f 8842 d13e 5c0c debd d29a 143d
00000370: f24c 3c3e 39c8 853e 64af 073e cefd 99bd
00000380: 62f9 4b3c d595 023e 7181 1cbe a3bd 47bf
00000390: ffd7 3c3e 9921 f23d 19e4 6fbc 8a16 da3e
000003a0: 226a ff3d cc12 953e 1201 a83e 767b c2be
000003b0: 0463 10bf 5d7c 013d 9c21 f1bc 555b be3d
000003c0: adb1 6f3d b21c 06be c607 4e3e 3f6f 85be
000003d0: ae50 6bbb 4637 c83c 348c 853d 9cc3 24bd
000003e0: 0a4c 69be 7683 d6bd 74b6 e9be 1b2d 11be
000003f0: 90e5 fe3c 3649 b33d 7175 c2bd 1086 6e3c
0.1604201 0.25665468 0.14249592 -0.16207412 -0.2520819 -0.13980487 0.21803445 0.16266243
-0.07064452 0.3383333 0.33893615 -0.45879748 -0.34255624 -0.08355654 -0.27185848 -0.2621352
0.24315079 -0.20657812 -0.10650222 0.21117415 -0.6903909 -0.59317917 -0.07037374 -0.46598262
-0.24525164 0.22529374 -0.35811964 0.2501796 0.34713385 0.09896849 -0.39008912 0.014786863
-0.21302558 0.21518762 0.12647665 0.18789253 -0.13352534 0.023997143 -0.118041545 -0.082150415
-0.1311876 -0.11658614 0.059192166 0.0031208396 -0.13227104 0.39378577 -0.47773877 -0.24857733
0.3507488 -0.21573767 -0.64587003 0.44832283 -0.117650345 -0.34845683 -0.5407643 -0.19316746
0.13338944 -0.8765173 0.009103476 -0.08810594 -0.23438941 -0.5120261 0.17045118 0.02491685
0.07288763 -0.14570959 0.055100046 0.15985511 -0.1995556 -0.019449705 0.31963792 -0.13931258
0.19692719 0.25199652 -0.36408818 0.12938529 0.29461515 -0.40128192 0.13143258 0.10611778
-0.112297505 -0.5136542 0.2917335 0.26520476 -1.1452323 0.17477202 0.072843105 -0.9776872
-0.20448351 -0.16629891 -0.008250803 0.118950725 0.08182795 -0.038014077 0.0745776 0.10657705
-0.0012357533 0.13127121 0.13250998 -0.36477736 -0.13646208 -0.4184915 -0.19580531 -0.52688646
-0.42621654 -0.014423421 0.022276297 -0.056994822 -0.10887625 0.06967817 -0.066111 0.16930357
0.037940744 0.06870392 0.15054987 -0.21223952 -0.096482486 0.16022018 0.019534368 0.013014834
-0.07639443 -0.089184426 0.058035348 -0.052151803 -0.052778076 0.27759996 -0.037623238 0.017820798
0.07970564 -0.06555934 0.15398088 0.17132194 -0.37734058 -0.03766213 0.05722316 0.07470574
0.04969512 -0.008869508 0.096416235 -0.011075273 0.065414436 0.078209475 -0.26588368 0.20968416
-0.07443233 0.10085954 -0.0135455355 -0.123185396 -0.02983898 0.09732707 0.04265113 0.118309915
-0.07946201 0.027285045 0.10629203 -0.1315405 0.50837654 0.32374117 -0.16836444 0.49563915
0.6299693 -0.8071289 -0.09800681 0.4596846 -0.1991619 -0.05586953 0.056359697 0.40121478
-0.18315431 0.004677102 0.36570418 0.05141112 -0.312768 -1.1216108 0.047390744 0.36815348
0.35053176 -0.051927336 -0.012019483 -0.03840262 -0.2602512 -0.3121497 -0.7067004 -0.110658154
0.14177878 -0.21483223 0.1483484 -0.012617496 0.05767569 -0.20738912 0.08602715 -0.4470999
-0.0018116187 -0.008603747 0.11054865 0.0155396005 -0.4376038 0.00056485285 -0.030003704 0.012964711
0.022098944 -0.08794184 0.01891157 0.056330025 0.039970413 0.036158115 0.060113594 0.12623826
0.1746839 0.625573 0.17930157 -0.7063422 -0.047636636 -0.004830114 -0.4257979 -0.7002099
0.8424737 0.40871072 -0.10842201 0.03628046 0.18388727 0.2612932 0.132505 -0.075191125
0.012449594 0.12752469 -0.15283753 -0.7802374 0.18441771 0.118228145 -0.014641785 0.4259532
0.12471415 0.29115903 0.32813317 -0.37984818 -0.56401086 0.031612743 -0.029434972 0.09294764
0.058519054 -0.13096884 0.20120153 -0.26061437 -0.0035906243 0.024440419 0.06520882 -0.04022561
-0.22782913 -0.10474293 -0.45647013 -0.14177363 0.031115323 0.08754198 -0.094950564 0.01455833

features.3.bias f4 [16]
00000000: f281 ff3d 7b76 773d bc71 c1be 64fb 5c3e
00000010: 6a9c dcbd 58ea 07bc 96ed c9be 915b 5e3d
00000020: d141 e83b fda7 17bd 05df af3e 6631 723e
00000030: f6c6 423e 7a67 4fbe 78e9 22be 8e80 62bd
0.12475957 0.060415726 -0.37782085 0.21580273 -0.10772021 -0.008295618 -0.39439076 0.054286543
0.007087924 -0.03702544 0.34349838 0.23651657 0.1902121 -0.20254317 -0.15909374 -0.05529838

fc.0.weight f4 [120, 400]
00000000: ad19 1cbd 1040 a3bd 202a 1f3c 5291 153c
00000010: 42a7 67bd 4a9f 44bd 4eea 8fbb 8011 80bc
00000020: 4780 72bc ab95 9dbd da51 83bb b182 1d3d
00000030: 3d5f 2fbd f381 cbbc e599 3fbd d234 b0bc
00000040: c07e dcbb 800b 393c b352 dcbc 969c 38bd
00000050: 21f1 adbc b095 e5bc ba1b b5bc 1a2a dd3c
00000060: ffd1 1dbd 37fe 3abb e8eb 02bd 38c8 eb3b
00000070: 2344 77bd 40ec 29bd a7ed 903c 002e 99bd
00000080: ddc2 46bd 5d73 503b 130b adbd db7d cdbc
00000090: df82 54bd 90a0 6bbd ec37 8dbd 9e3c a23b
000000a0: 26d8 85bd b43c cabc 39d0 a2bd 7591 f9bb
000000b0: ee13 c53b 2b7e 05bd 74c7 83bd 7953 89bd
000000c0: 7760 38bd 06a9 3bbd e6df 7cbb 8c02 aebd
000000d0: 4217 063d 8b40 393c eb9d 13bd 6f71 52bd
000000e0: f7c1 46bd 7d8e c6bc 59b8 e5bc f554 38bd
000000f0: b94d 6fbd 6af6 46bd cec2 bd3c 73ab 203a
00000100: 7492 95bb a429 b1bc f6f1 06bd 49bb 143d
00000110: e598 08bd 52e1 403c 6546 1dbd 2988 f53c
00000120: 1e56 8d3c e5b7 2cbd 1de3 b6bc fec1 0bbd
00000130: 56aa 033c 06a2 483c 2fd3 ffbb e5f4 6838
00000140: 74e3 ec3c 31cb bc3c 902d 603b 2ab3 e5bc
00000150: 38ad 7fbc 7cd3 c9bb 6e90 cfbc f31e 29bd
00000160: 7911 0abd f6d4 8cbc 71a7 f2bc 2d04 1cbc
00000170: 82ae 35bd b90c c0bc 1179 a0bc 1dec a8bc
00000180: a43e 6f3c c8f6 803c 4fcf 1f3d d16c 3cbd
00000190: 6eaf 6e3c 5a90 bbbc 7093 a9bc 549f 98bc
000001a0: 040c b7bc 0151 033d 2e90 ecbc 2f5d 99bd
000001b0: e56e d8bb b2d0 5abc 392b 143d 7157 51bd
000001c0: e664 93bd e98c 72bd 7b0e 22bd 8725 b1bc
000001d0: d512 8d3c ce1c 73bd ba17 6ebd 5190 59bd
000001e0: b7cb babc 76ab 9bbd eee7 45ba 347f a5bd
000001f0: dc5a 74bc 7e73 12bb 919f 52bd 4541 c6bc
00000200: 26d3 203a 020a 983b 2249 d1bc 6c35 8abd
00000210: f1f6 723b 7dfd a7bc fa9a a73c 92ea 463b
00000220: 89f8 60bd cdf3 813b 3f9b 36bd dfb4 06bd
00000230: bd81 2cbd 5557 f8bc ca88 58bd 99c1 a8bc
00000240: bde4 053b 5ddd 5ebb d1dc 16bd 4bde 87bd
00000250: d953 093c 9cec aeb7 2870 28bc 6812 75bc
00000260: e862 ce3c 1a3e 88bc 4dd6 953a 972b 3cbd
00000270: ecc3 7d3c d01f f83b 13ae fcbc 55ac 64bd
00000280: d0a6 0ebb c868 08bd 2daa e0bc 0ecc 183d
00000290: d036 17bd e7d4 edbc ffb0 323d 8d93 e5bc
000002a0: f078 993b 7501 fb3a 8161 353d dded aebc
000002b0: a680 de3c dd3e 31bd 202e acbd 07d5 0ebd
000002c0: c144 10bd 799d 28bd d7a7 e43c 5c51 3abd
000002d0: 7c20 883c 4716 f3bb 0af9 263d f873 133b
000002e0: 2c46 75bc 2aad dabc 8e4a 043c 153d e1bb
000002f0: 3fae b6bc d6cc 39bd 5775 8d3c e285 b9bc
00000300: 8cc7 0f3d 8d1b 20bd 6d69 e0bb f5ba 5fbd
00000310: 781e 283d 4ac4 d13c b33b e03c 262d 063d
00000320: 8594 0a3d 9d16 03bd c479 a3bd 3ff7 b1bc
00000330: dd23 26bd 8fe2 06bd 90ba b1bc 0ce1 1d3c
00000340: 6b7e 62bd cb58 afbc bba4 e03c 8e29 223d
00000350: a1ed 3ebd 4484 2d3d f1f4 a23c 1e44 233d
00000360: 0d0d b13c cacd 6abd 00b4 10bd f864 5cbc
00000370: 9761 a1bc 7e25 57bd 6f54 4abc ffa7 df3c
00000380: 63af a43c 64b0 763c f314 ebbc 5500 1fbd
00000390: d2d7 9d3c d4c2 733c 98d9 89bb 8aeb 19bd
000003a0: 0260 e53c 6b3c 0b3d ecfc 27bc 6c73 273c
000003b0: aa15 2abd d93e 213d 8030 2d3c c33c 4bbd
000003c0: 74e1 28bc 40c3 1b3c eaf0 833c 3fd0 4b3d
000003d0: 705b b5bc b2e7 d23c d206 e93c 974b b2bc
000003e0: df49 4abd 0cfa 36bc f874 4fbd 0a99 e7bb
000003f0: 640f 64bd fed2 993b 7de8 06bd e2ef d13b
-0.038110424 -0.07971203 0.009714633 0.009128885 -0.056555994 -0.048003472 -0.004391945 -0.015633345
-0.0148010915 -0.076945625 -0.00400756 0.038454715 -0.042815436 -0.024842238 -0.046777625 -0.021509562
-0.006728977 0.011294246 -0.026894903 -0.045071207 -0.021233143 -0.028025478 -0.022107948 0.026997615
-0.038530346 -0.0028532872 -0.03196326 0.007195499 -0.060367715 -0.04148507 0.017691446 -0.07479477
-0.04852568 0.0031807043 -0.08449378 -0.025084427 -0.05188262 -0.05752617 -0.06895432 0.004951074
-0.06535368 -0.024687149 -0.079498716 -0.007616217 0.0060143387 -0.032591026 -0.06434527 -0.06705374
-0.04501387 -0.04581549 -0.0038585602 -0.084965795 0.032737024 0.011306892 -0.036039274 -0.05137771
-0.048524823 -0.024237866 -0.028042005 -0.045002896 -0.05842373 -0.048574843 0.02316418 0.00061290635
-0.0045645777 -0.021626301 -0.032945596 0.03631142 -0.033348937 0.011772471 -0.03839721 0.029972153
0.017252978 -0.042167563 -0.022325093 -0.034120552 0.008036217 0.012245661 -0.0078071575 5.5541186e-05
0.028917052 0.023046108 0.0034206845 -0.028039534 -0.015605263 -0.006159244 -0.025337424 -0.04128928
-0.03370807 -0.017191391 -0.029620858 -0.00952248 -0.044355877 -0.023443567 -0.019588979 -0.0206204
0.014602337 0.015742674 0.039016064 -0.046002213 0.014568193 -0.02289598 -0.020700186 -0.018630661
-0.022344597 0.032059673 -0.028877344 -0.074884765 -0.0066050165 -0.013355421 0.036174033 -0.05110878
-0.07196979 -0.059216414 -0.03956459 -0.02162434 0.017220894 -0.059353642 -0.058128096 -0.053116146
-0.022802217 -0.07601063 -0.0007549514 -0.08080903 -0.014914241 -0.002234667 -0.051421706 -0.024201045
0.0006134979 0.004639865 -0.025547568 -0.06748471 0.0037073458 -0.020506615 0.02045964 0.0030352217
-0.05492452 0.003965831 -0.044581648 -0.032887336 -0.042115916 -0.03031508 -0.052864827 -0.020600127
0.0020430528 -0.0034006455 -0.03683168 -0.06634196 0.008381807 -2.0852596e-05 -0.010280646 -0.014958002
0.025193647 -0.016631175 0.0011431664 -0.045940008 0.015488606 0.0075721517 -0.030844724 -0.05582841
-0.0021766908 -0.033303052 -0.027424896 0.037303977 -0.036917508 -0.029032184 0.043625828 -0.02802446
0.0046836063 0.0019150215 0.04428244 -0.021353656 0.027160954 -0.04327284 -0.08407235 -0.034871127
-0.03522182 -0.041165803 0.027912064 -0.045487747 0.016617052 -0.007418427 0.040764846 0.0022499543
-0.014970344 -0.0266939 0.008074416 -0.0068737366 -0.022299884 -0.045361362 0.017267866 -0.022646848
0.035102412 -0.039088774 -0.006848505 -0.054621655 0.041044682 0.025606293 0.027372217 0.0327579
0.033833046 -0.032003988 -0.07982209 -0.021724341 -0.040561546 -0.032930907 -0.021695405 0.009636175
-0.055296343 -0.021404644 0.0274223 0.03959041 -0.04661334 0.042362466 0.019892188 0.039859883
0.021612668 -0.057325162 -0.03532791 -0.013451807 -0.019699855 -0.05252599 -0.012349232 0.027301786
0.020103162 0.015056703 -0.028696513 -0.038818676 0.01926795 0.014877994 -0.0042068474 -0.037578143
0.027999882 0.033993166 -0.010253172 0.01022039 -0.041524567 0.039366577 0.010570645 -0.049618494
-0.010307658 0.009507 0.016106088 0.049759146 -0.022138327 0.025745247 0.028445635 -0.02176456
-0.049386855 -0.011168014 -0.05064866 -0.007067804 -0.05567874 0.0046943417 -0.03293656 0.00640677

fc.0.bias f4 [120]
00000000: 1f7d 1ebd 3af2 0abe 0dec bebd 8c5b 1e3d
00000010: a89b 473e 0fba a7bc 15a8 7dbd 51a9 873c
00000020: 11a6 40bd f2fd 3bbe 3afe 5dbd 58b6 e3bc
00000030: ec8e 053b bbaa f83c 0b00 b03d 8767 003d
00000040: b66a 1fbd ba67 2d3e 37a4 48bd 0c87 baba
00000050: fb3e b4bd a512 a43d e7df cdbd e055 d63d
00000060: f0b2 d3bc a5af 283e 60e3 723d 5af0 683d
00000070: 237f d6ba 0b45 1cbd d1b8 7abd 99a5 66be
00000080: f6c4 5c3d aac1 46bc e30d 08bd 8ab7 e1bd
00000090: 4f2c 87bc 26f9 e23d 112b 523e 1e07 acbc
000000a0: 51e9 05bc 69c3 54bc 8767 3a3d d4f8 2abc
000000b0: c706 babd a364 813e c5d9 ae3d 6d22 93bd
000000c0: 9771 643c be28 adbd 7bc4 8b3e 02a5 563e
000000d0: 9ffc 153e 59cc d4bd 2973 00be 8f7d 913e
000000e0: b0d4 65bd 97ae 05bd 1587 2bbd fb49 1f3e
000000f0: 8a04 c7bc ebbd 7b3b 183a bc3e 1cf8 d6bc
00000100: b408 bfbc 0fcc d1bc d1b5 c7ba 773d 81bd
00000110: 9ed3 233e 2942 88bd b1f3 50bd a61f 33bd
00000120: d7d9 043d f2a2 65bd c24b a3bd a98c a23e
00000130: aa9f 8fbd 63da c43c 090a 90bc f6d1 46be
00000140: 82ed 0e3d 3a1a e13d fe29 52be 9143 54bd
00000150: c691 b9bc 8dd3 e1bd 97ab 06bd 304c 06bd
00000160: b656 f63d 41d3 b3bc ad84 783e 9d9b 03be
00000170: b3a9 04be 5d19 8abc 54d1 863a e0ec 7c3d
00000180: 73a3 a2bd 70d8 dfbd 8398 08be 61a0 53bb
00000190: 03ba 14be 5f9c 62bb 8703 a53c 26f0 21bd
000001a0: adf1 a03b 7d7e 15bc 28b7 67bd b291 c73d
000001b0: 2381 71bc 1c86 9abb 0271 3bbd 8854 aa3d
000001c0: e5db a5be 7e20 e0bd ad1c 7b3d 8d5f 3f3c
000001d0: 80db 95bd 15f8 d53d b645 9fbd d12f 85bd
-0.038693544 -0.13568965 -0.09322367 0.038661525 0.19492972 -0.020474462 -0.061927874 0.016560229
-0.047033373 -0.18358591 -0.054197527 -0.02779691 0.0020379378 0.030354848 0.08593758 0.03134873
-0.038920127 0.169341 -0.048984732 -0.0014230921 -0.08801075 0.08011369 -0.100524716 0.10465598
-0.02584216 0.16473253 0.059298873 0.056869842 -0.0016364794 -0.038151782 -0.06121141 -0.22524108
0.053898774 -0.012131134 -0.03321637 -0.110213354 -0.01650062 0.110826775 0.20524241 -0.020999487
-0.008173303 -0.012986043 0.045508888 -0.010435302 -0.09083324 0.25272092 0.0853763 -0.071843006
0.013943098 -0.084550366 0.2729834 0.20961383 0.14647149 -0.10390539 -0.1254393 0.28416106
-0.056111038 -0.032637205 -0.04187687 0.15555565 -0.024294157 0.003841276 0.36763072 -0.026241355
-0.02331958 -0.025609998 -0.0015236681 -0.063105516 0.15998694 -0.06653244 -0.051013652 -0.043731354
0.03243431 -0.0560636 -0.07973434 0.3174794 -0.070128754 0.024029916 -0.01758291 -0.19416031
0.034894474 0.109913304 -0.20523831 -0.05182225 -0.022652518 -0.11026678 -0.032878485 -0.0327875
0.120282575 -0.02195132 0.24269362 -0.1285233 -0.1295536 -0.016857797 0.0010285773 0.06174934
-0.07941332 -0.10929954 -0.13339429 -0.0032291638 -0.14524083 -0.0034578068 0.020143284 -0.039535664
0.0049116225 -0.009124395 -0.056571156 0.09744586 -0.014740261 -0.004715694 -0.04576207 0.08316904
-0.3239433 -0.109436974 0.061306644 0.011680496 -0.07317257 0.104477085 -0.07776968 -0.06503261

fc.2.weight f4 [84, 120]
00000000: 0002 62bb b201 79bb b37c cb3d 8fe8 023e
00000010: 8c45 083d 3a0d 103d 404d 37bd bcba 0abc
00000020: a004 113c c994 0cbe d552 c0bd 5871 1cbb
00000030: ee37 6f3d 9408 8cbd c6d7 d8ba 3400 663d
00000040: c6be b43d 80b2 483e 5ec6 a53d f81c 1b3c
00000050: 5fcd 1ebd 40df bdbd d0f8 863c 95f0 81bd
00000060: 4314 96bd e189 aebd 6618 b53c d8f0 d73d
00000070: 2a3c 16be 6c3e 9cbc 4c7b d93c 9f94 e83e
00000080: 72e6 3abe 658a 5fbe 8039 6cba 24f0 c53e
00000090: e225 8b3d 149b 023e 54d1 a2bb e81d 8e3c
000000a0: 8440 a5bd a492 403d 6381 e0bd 5061 8e3c
000000b0: 1019 913d d62a 9ebe 88ce 213d a0b5 743d
000000c0: cc46 0f3d b9ef 71bc 35a4 8fbc d7f0 f3bd
000000d0: 3d93 cd3e 582c 243e 3e1f 2b3e cdca 3f3d
000000e0: 07fc 113e 96a8 f63d 0263 9fbc bec3 523d
000000f0: 062f fdbc c9f0 00bd 3606 b73d c384 b8bd
00000100: 72ea 37bd cd68 9bbc e521 a7bd 091d cfb9
00000110: 4aee 2bbd 5603 a53d 602f 543d 0bcc b53d
00000120: 6569 1a3e 7f3f adbd 712b 38be 6433 ee3e
00000130: 7429 ab3d 3a9d 123c 9cdc a6bc 064f 9dbd
00000140: 4e83 7d3d b857 7ebe 35e2 90be cc4c 993d
00000150: a815 02bc 2c86 72bd 685a c3bd 9804 093c
00000160: e87a 6cbe b9ea 18bd b36a 69bd 4657 b4bd
00000170: 8b59 1abe c2a2 8e3d 6f14 e0bd 49d5 04be
00000180: 68a0 c23d 2605 3fbe a954 81bd 006b c33b
00000190: 28f4 553d 52f1 613c 5060 e43c 704b 6dbc
000001a0: f7dd 55be 69af 9fbc 7299 8d3d 6494 4bbc
000001b0: dbf5 3dbd 72a5 abbd e3f0 41be 2ae7 cfbe
000001c0: c840 fb3e 9ae8 9f3d c917 053e e6c6 f13b
000001d0: 9c65 d93c ecc9 00bf e6a4 1ebd da32 19bd
000001e0: 4182 8ebd f6c7 7d3e 24c5 973d b709 a3be
000001f0: 4530 963e 02c8 173e 4bd5 59bd bc6b 5a3e
00000200: 4bcd 533d 3e8b c3be 5ac5 87bc 4079 553c
00000210: eaeb 223c 4da1 1dbd e3b7 f03c 8d8d c63c
00000220: 30c6 55bd 7c22 973e 6fb3 c1bc 9dac 4bbd
00000230: 98bc 023d 1c99 83bc 155d f7be b6dc 943e
00000240: 5ad1 fabc 2ade a53e 8ab7 e8be 85f8 c53e
00000250: 4232 33be a073 3c3d 37b1 07bc 5755 a8bd
00000260: 290b 1fbd 6004 89be 55c7 9fbd 3536 163e
00000270: 047d bbbd 7c8d f139 8d4c a9bd 9d06 e53c
00000280: 273e 863d 6d82 40bd 1e3e f53e bf53 e2bc
00000290: 6ef8 cd3d 2842 07bd b39f 93be 24f3 a13d
000002a0: fb57 cc3d c7d4 d63c 7f65 663e 4715 07bf
000002b0: 1aed 6c3e 5df5 d6bd 869f 9f3d 3847 fb3d
000002c0: 8607 6c3d 6422 81ba 79eb 743d 97c3 2c3f
000002d0: 4809 a83d 2406 a53d 52b8 543d 192a 363d
000002e0: 0baf acbe 4db3 403d b94c a9bd d12a be3d
000002f0: b307 d8bd 306f 9e3d 015f 0a3d d00b 4d3e
00000300: 6dcf b63e 1565 b7bd af57 a4be 792a 9c3e
00000310: 2008 553a 84c6 873d d647 9dbd 7c36 32be
00000320: 2468 723c 339f a73d f9b7 b8bd 9c0e 843d
00000330: 2035 003d a94a 5dbe e937 4b3e b1d4 6a3d
00000340: efe0 ebbd 376f cfbe d06d b5bd 6808 a4bd
00000350: 2352 963e 9fe4 28bc 3579 153f 54e7 c53e
00000360: 8e82 72bc 7b5f dbb9 ad1b 8fbe 3c18 46bd
00000370: af9e 21bd bf35 f5bc faf7 a83d 9019 ed3c
00000380: 680a ad3d 145e d9bc cbee d2bd 126b d53e
00000390: 1511 90bd 504d 883e 0828 bfbe 9c07 dfbb
000003a0: cd20 173e 5b35 833b c242 a33d 2fbb aebd
000003b0: 050e 2c3d 2f5d af3e 8a94 3bbd 0017 58bd
000003c0: 9bba 23bd 9420 303e cbf1 85bd d7c3 02bf
000003d0: 75c7 b73d 3e92 f53e a9c1 2b3d d389 cc3c
000003e0: 89ed 8e3d 9904 7fbd 37fe 19bd ffd6 4bbc
000003f0: dbac 47be 9888 97bd f054 8f3e d3a4 6fbc
-0.0034486055 -0.0037995395 0.09935894 0.12784027 0.03326945 0.035168864 -0.044751406 -0.0084673725
0.0088512 -0.13728632 -0.09390799 -0.002387127 0.058402948 -0.06837574 -0.0016543798 0.056152537
0.0882545 0.19599342 0.08094476 0.009467356 -0.038770076 -0.09271097 0.016476065 -0.063447155
-0.07328083 -0.08522392 0.02210636 0.10543984 -0.14671388 -0.019072734 0.02654805 0.4542589
-0.1825197 -0.21830137 -0.0009011254 0.38659775 0.06794335 0.1275447 -0.0049688015 0.017348245
-0.08068946 0.047014847 -0.109621786 0.017380387 0.070848584 -0.30892056 0.039503604 0.059743524
0.034979627 -0.014766627 -0.017534355 -0.11911171 0.40151396 0.16032541 0.16711137 0.046824265
0.14256297 0.12043874 -0.01945639 0.051456206 -0.030906212 -0.03147963 0.089367315 -0.09009697
-0.04490132 -0.018970871 -0.08160762 -0.0003950375 -0.041975297 0.08057277 0.051802993 0.08876809
0.15079267 -0.084593765 -0.17985322 0.46523583 0.08357516 0.008948619 -0.020368867 -0.07681088
0.0618928 -0.2483815 -0.28297582 0.07485351 -0.007939734 -0.059209988 -0.09538728 0.008362912
-0.2309376 -0.037333224 -0.056986522 -0.088057086 -0.1507322 0.06964637 -0.109413974 -0.12971987
0.09503251 -0.18654308 -0.06314976 0.005963683 0.0522348 0.013790445 0.027877957 -0.014483318
-0.20885454 -0.019492822 0.06914033 -0.012425516 -0.046377044 -0.083811656 -0.18939547 -0.40606052
0.49072862 0.07808037 0.12997355 0.007378447 0.026537709 -0.5030811 -0.03873148 -0.03740201
-0.06958438 0.2478331 0.074106485 -0.3184335 0.29333702 0.1482239 -0.053181928 0.2133016
0.051709455 -0.3819217 -0.016573597 0.0130293965 0.009943942 -0.038483907 0.029384559 0.024237419
-0.05219096 0.29518497 -0.02364513 -0.049725164 0.03191814 -0.01606422 -0.48313203 0.2907464
-0.030617405 0.3239606 -0.4545253 0.38666168 -0.1749964 0.046008706 -0.008281997 -0.08219402
-0.038829003 -0.2676115 -0.078016914 0.14669116 -0.09154704 0.00046072516 -0.08266554 0.027957255
0.06554823 -0.046999384 0.47898954 -0.027627824 0.1005715 -0.033022076 -0.28832778 0.079077035
0.099777184 0.026224507 0.22499655 -0.5276684 0.23137322 -0.10496018 0.077940986 0.12269443
0.057624362 -0.0009852168 0.059794877 0.67485946 0.08204895 0.08057812 0.051933594 0.04447374
-0.33727297 0.047045995 -0.08266587 0.0928551 -0.105483435 0.07736051 0.03378201 0.20024037
0.35705128 -0.08954827 -0.32098147 0.30501154 0.0008126516 0.06629661 -0.07679717 -0.17403597
0.014795337 0.08184662 -0.09019465 0.06448099 0.031300664 -0.21610512 0.19845547 0.057331745
-0.11517512 -0.40514538 -0.08858836 -0.08009416 0.2935954 -0.010308414 0.5838807 0.38653052
-0.0148016345 -0.00041842074 -0.27950802 -0.048362955 -0.039457973 -0.029932855 0.08250423 0.028942853
0.084492505 -0.026534118 -0.102994524 0.4168325 -0.07034508 0.26621485 -0.3733523 -0.006806327
0.14758606 0.004004163 0.079717174 -0.08531796 0.042005558 0.3425078 -0.045795955 -0.05275631
-0.039972883 0.17199928 -0.06540259 -0.5108008 0.0897359 0.47963136 0.041932736 0.024968063
0.069789 -0.062260244 -0.037595954 -0.012441396 -0.19499533 -0.073991 0.2799449 -0.0146266995

fc.2.bias f4 [84]
00000000: 8780 bfbe 6ef4 97bd 63ec 5c3e 3ce8 873e
00000010: cc93 aebe dbfb 2d3e b7fe 4c3e e01b 9a3d
00000020: 50ba 813d cf83 e13d 5970 eabd 0b7b 61be
00000030: 16d0 e4bd 145d 973d 77c6 a8bc 17e8 b4bd
00000040: b2dd 353d 5ddb 973d b807 b23d c669 863e
00000050: 804a fb3d 1863 95be d6ab a5be 9af3 febd
00000060: 90ef ce3e 4c43 6b3e 88bf 98be 441d 8d3e
00000070: 7d93 60bd a65a 52be c9c2 ad3c 6434 0fbd
00000080: 124f 3c3d 63e1 0a3e 92d8 b1ba ed65 a13d
00000090: 407a dcbd 7600 863e 7c5c 51bd 7239 0bbe
000000a0: f632 0abd 09c2 4c3d dc62 a6be 6da2 f2bc
000000b0: e66f 32bd 38f9 263e cbf6 153e fa55 79bd
000000c0: 7d08 13be dfe8 03be 49e9 f93d 8e48 35bd
000000d0: 093d 093e 979a 883e fb12 573e 63dd 0338
000000e0: d068 5c3e dce3 0ebe 2666 683d cfce 70be
000000f0: 3e7f 47be ccbd 9cbd ade9 4f3c d2de 10be
00000100: 8959 243e 83ad e5bd b29c efbd c3f9 24be
00000110: 9d3a df3c 11a4 adbe c9e0 b33e 7910 563d
00000120: 2dad e53d e5b7 283d 5e41 723e 8b5d 893c
00000130: 679b 09be 23b8 4dbd 5a73 1bbe 6335 ec3d
00000140: f33d 1ebd 4abc 3d3c 986f 3bbe fdc1 873d
-0.37402746 -0.07419668 0.2157455 0.26544368 -0.34097135 0.16990606 0.20019041 0.07524848
0.063343644 0.110114686 -0.1144721 -0.22019593 -0.11172502 0.073908 -0.020602448 -0.0883333
0.04440088 0.07414887 0.086928785 0.26252574 0.12270069 -0.29177165 -0.32357663 -0.12448807
0.40417147 0.2297489 -0.29833627 0.2756139 -0.054828156 -0.20542392 0.021211045 -0.034962073
0.045973845 0.1356254 -0.0013568571 0.07880769 -0.10765505 0.26172227 -0.05111359 -0.13596132
-0.033740006 0.049989734 -0.324973 -0.029618466 -0.043563746 0.16306007 0.14644925 -0.06087301
-0.14358707 -0.12881802 0.12202699 -0.044258647 0.1340219 0.26680443 0.21003334 3.1439016e-05
0.21524358 -0.13954109 0.05673804 -0.23516391 -0.19482133 -0.076533884 0.01268999 -0.14147499
0.1604978 -0.11214735 -0.11699809 -0.16110902 0.027249629 -0.33914235 0.35132435 0.052261803
0.11214671 0.041191 0.23657748 0.016768238 -0.13438188 -0.050224435 -0.15180722 0.1153362
-0.038633298 0.011580536 -0.18304288 0.06628797

fc.4.weight f4 [10, 84]
00000000: 1b1b a1be 4860 22bf f1f7 89be d4c8 1a3e
00000010: 3d13 e1be fea5 9cbd aef0 d2be e2a7 9cbe
00000020: 2de7 7cbe f290 02bf c56a b93c fbd7 b93d
00000030: e60f ec3d b5b1 603d 77e6 943d 6d5f c7be
00000040: 6806 f0be e724 24bf b33c 5ebe a851 61be
00000050: 84a2 e63b 1cd7 68be dd7b 02bf f006 0fbd
00000060: 2701 c1be 355e 503e 0fec 513e 0fab 7a3d
00000070: fe11 83bc 2b75 ec3d 1361 8e3e 23df 6b3e
00000080: 6c83 08bf c114 b23d bb37 b8bf cd8b 45be
00000090: 8f76 04bf 1323 9abe edcc b6bc 5b01 29bf
000000a0: 9315 b7be dfb5 5f3e 3d52 2a3c 6b04 363d
000000b0: 28ad 54bd b03e debe 5d66 913e bcbd a6be
000000c0: 52ed debe b079 c8ba cf96 2fbf 8673 d3be
000000d0: 04f3 d63d 6989 a6be bf69 8c3d 134c a4be
000000e0: 1e1d 273e cb95 14be 2d89 323b d7de bdbe
000000f0: 8575 e8be cd72 d93d eab2 69be 0d7c b4bd
00000100: 8312 7e3d c3c7 333e f217 36be 0097 0dbe
00000110: 10cd 953d 94e0 363d fe9f 623d ff5e 3d3e
00000120: d64a b43c 0e8f f7bd 5682 bfbe 4abe 74be
00000130: 689b 49bd e6eb 1abe 2728 a3be 1ef4 833e
00000140: 3899 6bbd b92a bfbd 8ecb 06bf 253d 103e
00000150: c67d 11bf 3dea 85be 5d30 cf3e ed4d b8bc
00000160: f570 193e 3915 a8be b450 fe3e a840 2cbf
00000170: 751b fc3c a334 21bf 949e 03be 592b 5e3e
00000180: 6b09 593e 63e8 e2bd 85e7 35bf 4b03 3ebf
00000190: a4e0 803d 4dd7 09bc 9d3a aa3c 2132 fbbe
000001a0: 967c c2be 8708 03bf d739 4ebf 664c 0e3f
000001b0: a065 0abf 90a9 b5be 6cd5 0dbf 7295 03bf
000001c0: 3379 cbbd 3c08 b6be 3be6 1bbf 3360 8cbe
000001d0: 9778 1abf 95cb 80bf 3982 acbf ba3c 50bf
000001e0: e692 83bd 958a 163f 28fa f13d 02d8 40bf
000001f0: 535c c5bf 4570 893e 143d 7abe 5949 13be
00000200: c351 643e 58c7 c0be 0806 1dbe e5c3 5f3e
00000210: 4fea 1a3e 0040 8dbd 8a7e 6bbf 454a 153e
00000220: 04c1 7dbf b59e 163e b316 37bc 73a7 68bf
00000230: c648 82bf 802c debd 15b0 6fbf 3962 61bf
00000240: 4375 e6be 714b 4f3e 6e01 52bf 9c7f 31bf
00000250: 53d0 923c c17a df3d f290 cebe 1166 8ebd
00000260: 7a76 7c3d b2f0 f0be 3f55 76bf 818b 88bf
00000270: c60e 9abe 1132 b9bd 11ae 88be 1ef8 a1be
00000280: 4da5 c3be 4c29 fbbe dab5 0fbf 3ad0 03bf
00000290: ad18 863b 8c03 38bf b889 51be ee1f ccbe
000002a0: 91e7 91bb 7868 a0bf 14c8 96be 431f 003e
000002b0: 0b22 02bf cc5a ddbe aaf6 323c 61b7 343d
000002c0: 75fd b4bd b051 4cbe c9e0 acbd 89f9 c9be
000002d0: e89e 623e 836c 91bd 8267 c7be 0977 adbc
000002e0: ed31 44bf e3cf c83d a6ea 17bf 7432 893d
000002f0: 391b 5f3d f971 80bd ad78 6cbf 184e a0be
00000300: 4cda 073d c2ce 4e3e de21 b43d 5ea7 373e
00000310: 9bb3 bfbd cacb 04bd c334 42be 8b9c 913e
00000320: 6949 93be 156d efbd d302 75bf 62ec 303e
00000330: 2522 a6be 9ba3 2fbf a4bf 08bf b4fe 56be
00000340: be00 26bf 0cb8 ce3d 466c 8ebe fa72 26be
00000350: b740 ccbd 302d 12bf 6fa0 03be 2a18 32bf
00000360: f187 dabe ba33 adbd da60 073e ca6b 51bd
00000370: 5108 ffbd 5a6a 0cbe a452 3aba 9f0b 593e
00000380: 3564 4e3e 8464 93ba 3a53 96be 7186 8dbd
00000390: 8d2d f3be 355b a0be a266 fc3d d41c 1dbf
000003a0: 7a2e 1dbe 87bc ca3d ca14 83bd 8493 8cbd
000003b0: 428e 35bf 22bb 9cbe 77a3 503e 290c f2bd
000003c0: ac1c 22bd 0a78 23bf 346a 6c3e 053a 603d
000003d0: b963 153e 7ad5 fcbe 87a8 9fbf e04b 8abc
000003e0: 2c42 6fbd dbff f0bd eaf7 a2bd a050 7abe
000003f0: c150 e2be c0bb b6be 230b 4cbd 5712 3b3e
-0.31465992 -0.63428164 -0.26946977 0.15115672 -0.4395999 -0.07648848 -0.4119925 -0.30596834
-0.24697562 -0.5100242 0.02263392 0.09074398 0.1152647 0.054856975 0.0727052 -0.38939992
-0.46879888 -0.6411881 -0.21702842 -0.22003806 0.0070384163 -0.22738308 -0.5097025 -0.034918725
-0.37696192 0.20348437 0.20500205 0.06119829 -0.01599979 0.115457855 0.27808437 0.23034339
-0.53325534 0.08695365 -1.4392008 -0.19291611 -0.51743406 -0.30104885 -0.022314513 -0.66017693
-0.35758647 0.21846722 0.010395584 0.044437807 -0.051922947 -0.43407202 0.2839841 -0.3256663
-0.43540436 -0.0015295055 -0.6858949 -0.41299075 0.1049557 -0.3252671 0.06856107 -0.3208929
0.16319701 -0.14510266 0.0027242408 -0.37084076 -0.4540216 0.106176 -0.22822157 -0.08812723
0.062029373 0.17556672 -0.17782572 -0.13827133 0.07314503 0.04464777 0.05532836 0.1849327
0.02200834 -0.120878324 -0.37404126 -0.23900715 -0.049220473 -0.1512905 -0.3186657 0.25772184
-0.057519168 -0.093343206 -0.5265435 0.14085825 -0.5683254 -0.26155272 0.40466586 -0.022498095
0.14984496 -0.32828692 0.49670947 -0.6728616 0.030774811 -0.6297094 -0.12853462 0.21696223
0.21194999 -0.110794805 -0.71056396 -0.74223775 0.06292847 -0.008413148 0.020779902 -0.49061683
-0.37985677 -0.51184887 -0.80557007 0.55585325 -0.5406132 -0.35480928 -0.5540378 -0.5139991
-0.09935226 -0.35553157 -0.6089818 -0.27417144 -0.60340255 -1.0062128 -1.3477241 -0.8134266
-0.06424503 0.5880521 0.11815292 -0.753296 -1.54188 0.26843467 -0.24437362 -0.14383449
0.22296815 -0.37652087 -0.15334332 0.21852072 0.15128444 -0.06896973 -0.9198996 0.14579113
-0.99122643 0.1470898 -0.0111748455 -0.9088051 -1.0178459 -0.108483315 -0.93628055 -0.880405
-0.4501134 0.20243622 -0.8203343 -0.6933534 0.017921602 0.10912085 -0.4034496 -0.06953061
0.061636426 -0.47058636 -0.96223825 -1.0667573 -0.30089396 -0.090427525 -0.26695302 -0.3163461
-0.38212052 -0.49054945 -0.5613686 -0.51489604 0.004092297 -0.7188041 -0.20462692 -0.3986811
-0.0044526537 -1.2531881 -0.29449522 0.12511925 -0.50833195 -0.43233335 0.010923067 0.044120196
-0.088374056 -0.19953036 -0.08441312 -0.39448193 0.2213093 -0.07100775 -0.38946158 -0.021174924
-0.7663868 0.09805276 -0.5934242 0.06699076 0.05446932 -0.062717386 -0.92371637 -0.3130958
0.03316717 0.2019606 0.08795522 0.1793494 -0.09360429 -0.03242091 -0.1896544 0.28439745
-0.28766945 -0.116907276 -0.95707434 0.17277673 -0.32447925 -0.6860902 -0.5341742 -0.20995599
-0.6484488 0.10093698 -0.2781698 -0.16254798 -0.09973281 -0.571002 -0.1285417 -0.6956812
-0.4268184 -0.08457132 0.1322054 -0.051128186 -0.12452758 -0.13712445 -0.00071076513 0.2119584
0.20155413 -0.0011245166 -0.29360372 -0.06910408 -0.4749569 -0.31319585 0.12324263 -0.61372113
-0.1534976 0.0989924 -0.064004496 -0.06864074 -0.70920193 -0.3061152 0.20374857 -0.118187256
-0.039578125 -0.6385504 0.23087388 0.05474283 0.14588822 -0.4938162 -1.2473305 -0.016881883
-0.058412716 -0.117675506 -0.07957442 -0.24444818 -0.44202235 -0.35690117 -0.04981531 0.18268715

fc.4.bias f4 [10]
00000000: 253a cdbc a415 cdbe 8e41 0bbd c33a 633e
00000010: e82d 39be 8107 7dbd 4c7a 653e d757 333e
00000020: 7f67 fb3d 61e7 4fbe
-0.02505214 -0.40055573 -0.033998065 0.22190385 -0.18083918 -0.061774734 0.22409934 0.17513977
0.122756 -0.20303108
